artifacts/model_lite.tflite (tflite, 1784 bytes, 3 tensors)

sequential_1/normalization_1/truediv;sequential_1/normalization_1/Sqrt f4 [1, 8]
00000000: cefd 143f e7f4 0f38 a795 363f 6f5d b53e
00000010: 9ca7 e53e 4d76 543d 63bd 473d e199 423d
0.58199775 3.432194e-05 0.713221 0.35422847 0.44854438 0.051870633 0.048764598 0.04751003

Const_1 f4 [1, 8]
00000000: b5f3 9140 36d9 c347 623b 3f40 a9f1 b240
00000010: ffff 3941 9be4 2643 8f17 a942 94d8 ce42
4.5609994 100274.42 2.9879994 5.5919995 11.624999 166.89299 84.54601 103.423004

sequential_1/dense_1/MatMul f4 [1, 8]
00000000: 1778 7543 0820 08c4 1e30 f643 1cb1 d1c3
00000010: 78c5 32c3 4437 c643 69bb 0cc4 3aca 80c3
245.4691 -544.5005 492.37592 -419.38367 -178.77136 396.43176 -562.9283 -257.5799
